딥러닝모듈/cnn_model.pt (torch, 203111 bytes, 6 tensors)

layer1.0.weight f4 [32, 1, 3, 3]
0	0xbec69fa9	-0.38793686
1	0xbdcd4c2a	-0.10024293
2	0xbd24b3b9	-0.04021046
3	0xbd97e2dc	-0.07416317
4	0x3e8fe972	0.28107792
5	0x3ebbf6b5	0.3671166
6	0x3e12cb9f	0.14335488
7	0xb9bdc448	-0.0003619513
8	0x3dea668d	0.11445341
9	0xbee0c63b	-0.43901238
10	0xbee30320	-0.44338322
11	0x3d8023a5	0.06256799
12	0xbefaf303	-0.49013528
13	0x3e5add5c	0.21373504
14	0x3e82f10b	0.25574526
15	0x3f034d86	0.51290166
16	0x3f0110c2	0.50416195
17	0xbe23443d	-0.15944
18	0x3e919d86	0.28440493
19	0x3e90ea19	0.28303602
20	0x3e0c6987	0.1371213
21	0xbe828135	-0.25489202
22	0xbc815f9f	-0.015792666
23	0xbe2b8fb7	-0.16754042
24	0x3e4523ca	0.19251934
25	0x3e938ba1	0.28817466
26	0x3e7bdcc6	0.24595937
27	0xbe6696d2	-0.22518471
28	0xbf3b66d2	-0.73203766
29	0xbef1a8cb	-0.4719909
30	0xbc9f90f2	-0.019478295
31	0x3e0df284	0.13862044
32	0x3d81caa6	0.0633748
33	0x3f0d6a6d	0.5524052
34	0x3dfb8ff6	0.12283318
35	0x3edb3896	0.4281661
36	0x3ec1390d	0.3773884
37	0x3e08fd61	0.13377906
38	0xbe3b2421	-0.18275501
39	0x3e6cba37	0.2311791
40	0xbdd13292	-0.10214724
41	0xbe7ca1f6	-0.24671158
42	0x3ec40291	0.38283208
43	0x3ed99e65	0.42503658
44	0xbed140ac	-0.40869653
45	0xbf4a8911	-0.79115397
46	0xbe6ae80d	-0.22940083
47	0xbd67e41e	-0.056614034
48	0xbf032335	-0.51225597
49	0xbdccdee2	-0.10003449
50	0x3f01aeae	0.50657165
51	0xbe5fa90f	-0.21841834
52	0x3df1d87e	0.11808871
53	0x3f087a6a	0.5331179
54	0x3ca94654	0.020663418
55	0x3e283e27	0.16429959
56	0xbe931467	-0.28726503
57	0x3e4c9ea9	0.19982399
58	0x3ef75197	0.48304436
59	0x3de1ecf8	0.11031526
60	0x3dfae093	0.122498654
61	0xbea488ea	-0.32135707
62	0xbea2b06c	-0.31775224
63	0xbe53996d	-0.20663996
64	0x3e970c47	0.29501554
65	0x3f04e77c	0.5191572
66	0x3b319a1c	0.0027099913
67	0xbebc8ee7	-0.36827776
68	0xbe02a1c9	-0.12757029
69	0xbdd98589	-0.10621173
70	0xbea19dec	-0.31565797
71	0xbef4bf9e	-0.47802442
72	0x3d7c71e4	0.061632052
73	0xbf36997e	-0.7132796
74	0xbf1fd5ed	-0.624358
75	0x3f77e126	0.96827924
76	0xbe136d53	-0.14397173
77	0xbedbce51	-0.42930844
78	0x3efd713b	0.4950045
79	0x3e5de914	0.21670943
80	0x3e11a68a	0.14223686
81	0xbe9e9e19	-0.30979994
82	0x3e5172d0	0.20453954
83	0x3e8d1945	0.27558342
84	0x3e82da79	0.25557306
85	0xbe73b246	-0.23798475
86	0x3d8a6a8e	0.06758605
87	0x3ebaa7de	0.36456198
88	0x3e9cdaf9	0.30635813
89	0x3e7aa53d	0.24477096
90	0xbf0848c9	-0.5323606
91	0xbedf67dd	-0.4363393
92	0x3e51c980	0.20487022
93	0x3eb9cda2	0.36289698
94	0x3ee2d695	0.44304338
95	0x3e92bfb5	0.28661886
96	0x3e82ad8f	0.2552304
97	0x3e58e07c	0.21179384
98	0x3c2b0ff1	0.010440812
99	0x3ec4d3d3	0.3844286
100	0x3de11ced	0.10991845
101	0xbed0250a	-0.4065326
102	0x3e3ca63a	0.18422785
103	0xbe066443	-0.13124184
104	0xbe8173fc	-0.25283802
105	0x3e2654ff	0.16243361
106	0xbf0f2e65	-0.5593017
107	0xbf13e741	-0.5777474
108	0xbe79e2c5	-0.24402912
109	0x3ecc1821	0.3986216
110	0x3f0eb8d6	0.5575079
111	0xbef7d4cd	-0.48404542
112	0xbe5de24d	-0.21668358
113	0x3ea2aba0	0.31771564
114	0xbf17e553	-0.59334296
115	0xbf360547	-0.711018
116	0xbebcbac4	-0.3686124
117	0x3e22426f	0.15845655
118	0x3e46ada3	0.19402175
119	0xbee2df4e	-0.44310993
120	0xbe622ea2	-0.22088102
121	0x3ed4e836	0.41583413
122	0x3f0b93ca	0.54522383
123	0x3d1e370f	0.038626727
124	0x3e8b3080	0.2718544
125	0xbdcd7bc0	-0.10033369
126	0xbc1a5eea	-0.009422043
127	0x3f0b6df4	0.5446465
128	0x3ee22d00	0.44174957
129	0x3e865eea	0.2624429
130	0x3b5bae5d	0.0033520677
131	0x3eaa6ed3	0.33287677
132	0xbf52bb8c	-0.82317424
133	0xbf1e1c66	-0.6176208
134	0x3d7f04c6	0.06226041
135	0x3e4a5276	0.19758019
136	0xbe9af8ee	-0.30268043
137	0x3de8c112	0.1136495
138	0x3eb9a9c7	0.36262342
139	0xbeb51837	-0.35370037
140	0x3e316efb	0.17327492
141	0x3e1ac69d	0.15114827
142	0xbe8a2770	-0.26983213
143	0x3e1503ca	0.14552227
144	0xbee8c5fe	-0.45463556
145	0xbe889d20	-0.26682377
146	0x3eae4941	0.34040263
147	0xbee4acbd	-0.4466304
148	0xbd389ddc	-0.04507242
149	0x3eacaf59	0.3372753
150	0xbed50953	-0.41608676
151	0x3dbcc2c7	0.09216838
152	0x3f20c6ff	0.62803644
153	0xbebf7a9a	-0.37398225
154	0xbdde8b34	-0.10866395
155	0x3ebc470d	0.36772957
156	0xbed04f4c	-0.406855
157	0xbd8ef020	-0.06979394
158	0x3e857a99	0.26070097
159	0xbe4a066e	-0.19729015
160	0x3d789bf3	0.0606956
161	0x3f112114	0.566911
162	0x3e789a9a	0.24277726
163	0xbed9fb98	-0.42574763
164	0xbea610a1	-0.32434562
165	0x3eee76cc	0.4657501
166	0xbe6b6683	-0.22988324
167	0xbf0c06eb	-0.54698056
168	0x3eb42d2a	0.35190707
169	0x3d8678d6	0.065660164
170	0x3edf88b9	0.43659
171	0x3dade845	0.084915675
172	0xbccdba34	-0.025113203
173	0x3eaff923	0.34369764
174	0x3e6ced34	0.23137361
175	0x3ecca06d	0.39966145
176	0x3e6811ea	0.22663084
177	0x3d864c5b	0.065575324
178	0x3dacaba8	0.08431178
179	0xbe9e948a	-0.309727
180	0x3cfd043c	0.030885808
181	0xbf198249	-0.59964424
182	0xbeebac73	-0.46030006
183	0xbe965d1f	-0.2936792
184	0x3eac23c6	0.33621043
185	0x3ed94481	0.42435077
186	0xbd9f003c	-0.077637166
187	0x3e8f3566	0.27970427
188	0x3eb42b5f	0.3518934
189	0x3eab25a8	0.33427167
190	0xbed624b5	-0.4182488
191	0xbe99ef7f	-0.30065534
192	0x3e867732	0.26262814
193	0x3ee9e191	0.45679906
194	0x3ec55146	0.3853857
195	0x3ad69c0b	0.0016373409
196	0xbe9696fd	-0.2941207
197	0x3de928e5	0.11384753
198	0xbee0bbd7	-0.4389331
199	0x3e35a1c1	0.17737485
200	0x3e080d78	0.13286388
201	0x3eb0c277	0.34523365
202	0x3e389f66	0.18029556
203	0xbaabaa13	-0.0013096951
204	0x3ecd3e48	0.4008658
205	0x3dea7df3	0.11449804
206	0xbf311674	-0.69174886
207	0xbebeeac9	-0.37288502
208	0x3edb5b1d	0.4284295
209	0xbd925e36	-0.071468756
210	0x3ccc2a4f	0.024922518
211	0x3f185bf2	0.595153
212	0xbec5190d	-0.38495675
213	0x3e6fb56c	0.2340905
214	0xbe11c0de	-0.14233729
215	0xbebc274e	-0.36748737
216	0x3f0b04b0	0.5430403
217	0xbe6fa0f3	-0.23401241
218	0xbecf71a7	-0.40516397
219	0x3e89c61c	0.26908958
220	0xbed158c7	-0.40888044
221	0xbda0e3a8	-0.07855922
222	0xbea53e4e	-0.32274097
223	0xbe53af12	-0.20672253
224	0xbebdb1eb	-0.37049803
225	0x3f002487	0.50055736
226	0x3ef7b83e	0.48382753
227	0x3eadb419	0.33926466
228	0x3d1ea413	0.038730692
229	0x3deb3db7	0.114863805
230	0xbe9f7126	-0.31141013
231	0xbef193d0	-0.47183084
232	0xbf315d05	-0.6928256
233	0xbf020e5b	-0.50803155
234	0xbbb2ae32	-0.0054528946
235	0x3f4f7c5a	0.8104912
236	0x3f10e197	0.5659422
237	0xbf1d7b6c	-0.6151645
238	0xbd8dc96d	-0.069231845
239	0x3eaf7f33	0.34276733
240	0xbf1d4a54	-0.6144154
241	0xbefaafc8	-0.48962235
242	0x3e208fe1	0.15679885
243	0xbeacb468	-0.3373139
244	0xbd8e52ad	-0.06949363
245	0x3ecee5d4	0.4040972
246	0xbeb8f03b	-0.3612078
247	0xbef70207	-0.48243734
248	0xbea21ba0	-0.316617
249	0x3eee6661	0.46562484
250	0xbddbd4f7	-0.10733979
251	0xbe81133c	-0.25209987
252	0x3f051ef5	0.5200036
253	0x3f181997	0.59414047
254	0x3eb8c7ba	0.3608988
255	0x3dfd784f	0.12376463

layer1.0.bias f4 [32]
0	0xbdb3babc	-0.08775851
1	0xbc3a75e3	-0.011380645
2	0xbe6f86c4	-0.23391253
3	0x3e1df478	0.15425289
4	0xbe8fcc07	-0.28085348
5	0x3e01163c	0.12606138
6	0xbcb0ea39	-0.021596061
7	0x3e2d5182	0.16925624
8	0xbc3ae75c	-0.011407699
9	0xbe8f84c4	-0.2803098
10	0xbdb4c003	-0.08825686
11	0x3e84881f	0.25885102
12	0x3e61c963	0.22049479
13	0xbe1ba533	-0.15199737
14	0xbd7b04eb	-0.061283987
15	0xbdd732a6	-0.10507707
16	0xbd33939a	-0.043841936
17	0xbdebe733	-0.11518707
18	0xbc35b616	-0.011090776
19	0xbe30ee3d	-0.1727838
20	0xbcb3e79b	-0.021961024
21	0xbe106fe3	-0.14105181
22	0xbd5ce1de	-0.05392634
23	0xbc37ac8c	-0.011210572
24	0x3e6d0547	0.23146544
25	0x3e78404e	0.2424328
26	0xbbd59d78	-0.006519016
27	0x3e793b02	0.24338916
28	0xbd023777	-0.031791177
29	0xbdb34ed9	-0.08755273
30	0xbd6591e0	-0.05604732
31	0x3cd04ca1	0.025427165

layer2.0.weight f4 [64, 32, 3, 3]
0	0xbe6b3e62	-0.22973016
1	0xbdc9f67d	-0.09861467
2	0x3d78a4e2	0.06070412
3	0x3cdac93a	0.02670728
4	0xbe13e064	-0.14441067
5	0x3d950189	0.072756834
6	0x3d9bef32	0.07613982
7	0xbd240bf5	-0.040050466
8	0x3d79f872	0.06102795
9	0xbe993323	-0.29921827
10	0xbdb3af98	-0.08773726
11	0x3daa056b	0.08301815
12	0xbce3545c	-0.027750187
13	0xbe0f3d58	-0.13988245
14	0xbcfde71f	-0.030993996
15	0x3da0e3d2	0.07855953
16	0x3d6268c1	0.055275682
17	0x3d11fed6	0.03564342
18	0xbd21eb91	-0.039531294
19	0x3b45b5c3	0.0030168153
20	0x3e18264a	0.14858356
21	0xbe38b7ab	-0.18038814
22	0xbe067674	-0.13131124
23	0x3dff2136	0.12457506
24	0x3cb12b72	0.021627162
25	0x3d614cfc	0.05500506
26	0x3dc33d04	0.09533122
27	0xbe69dca9	-0.22838081
28	0xbd897c41	-0.06713153
29	0xbca20b5b	-0.019780805
30	0xbd0e8e59	-0.034803722
31	0xbd98d646	-0.074627444
32	0xbe9c83f8	-0.30569434
33	0xbc01bde7	-0.007918811
34	0xbc5afe13	-0.01336624
35	0xbca915b4	-0.020640232
36	0xbe151703	-0.1455956
37	0x3e7d4c5f	0.24736165
38	0x3e03e23a	0.12879267
39	0xbeadcd5d	-0.33945742
40	0xbc733ce5	-0.014846061
41	0xbe461bea	-0.19346586
42	0xbe5d40a4	-0.2160669
43	0x3e458ebf	0.19292735
44	0xbd202b5d	-0.039103854
45	0xbdd74580	-0.10511303
46	0xbca3307a	-0.019920576
47	0x3d6c85b3	0.057744693
48	0xbd48034d	-0.048831273
49	0xbd80a2b9	-0.06281037
50	0x3ca15964	0.019695945
51	0x3d060171	0.03271622
52	0xbd440653	-0.047857594
53	0x3dc1cffb	0.09463497
54	0x3d3d6cac	0.046246216
55	0x3d995624	0.07487133
56	0xbd8d0059	-0.06884832
57	0xbe2307bf	-0.15920924
58	0xbe201951	-0.15634657
59	0xbc813128	-0.01577051
60	0xbd4c3c96	-0.049862467
61	0xbd87c33b	-0.06629034
62	0xbc80cf8b	-0.015723964
63	0x3a86c5a2	0.0010282288
64	0x3d061940	0.032738924
65	0xbe8d26bd	-0.27568617
66	0xbd018f50	-0.031630814
67	0xbc71f380	-0.014767528
68	0x3c8f31f0	0.017479867
69	0xbd367072	-0.04454083
70	0xbd8b2c4b	-0.067955576
71	0xbd420ebb	-0.04737733
72	0xbe933640	-0.28752327
73	0x3e65cc63	0.22441249
74	0x3e035182	0.12824062
75	0xbd7b4791	-0.061347548
76	0x3d828b0b	0.063741766
77	0xbddc2390	-0.107489705
78	0xbc455a4e	-0.012045456
79	0x3e50812d	0.20361777
80	0x3c893e1b	0.016753247
81	0xbe161767	-0.14657365
82	0xbd30a5cc	-0.043126866
83	0x3da1037f	0.07861995
84	0xbe30283c	-0.17202848
85	0xbdf8ee38	-0.121548116
86	0x3ca84ef0	0.020545453
87	0xbd7e27d9	-0.06204972
88	0xbbbd0105	-0.005767944
89	0x3dc9fc48	0.09862572
90	0xbe2ad2e1	-0.16682006
91	0xbd25dde0	-0.0404948
92	0x3dfe9d2a	0.124323204
93	0xbbbd3988	-0.0057746805
94	0xbd910904	-0.07081798
95	0xbd81a72d	-0.063307144
96	0x388504b5	6.342811e-05
97	0x3c910ef1	0.01770732
98	0x3d47c1b4	0.048768714
99	0xbe079b88	-0.13242924
100	0x3d0e7c19	0.034786317
101	0xbeb391b6	-0.35072106
102	0xbd996c1a	-0.07491322
103	0xbdd5e212	-0.1044351
104	0xbefacdeb	-0.48985228
105	0xbd674bdf	-0.05646884
106	0xbd08fa9d	-0.03344213
107	0xbdc30688	-0.0952273
108	0x3c42c407	0.011887557
109	0xbc9182b0	-0.017762512
110	0xbd5e2927	-0.054238465
111	0xbd8c0b16	-0.06838052
112	0xbd2302e0	-0.039797664
113	0x3e0843ac	0.13307065
114	0xbb4a5814	-0.0030875253
115	0xbd8f8130	-0.070070624
116	0xbb18d3ad	-0.0023319528
117	0x3b58c3f9	0.0033075793
118	0xbd81f4d0	-0.063455224
119	0x3e47cafa	0.19511023
120	0xbd84c07f	-0.06482028
121	0xbe136927	-0.14395581
122	0x3e6fa457	0.23402534
123	0xbc16c7b4	-0.009202886
124	0x3bdb45f0	0.006691687
125	0x3d6d608d	0.057953406
126	0x3e099cad	0.13438673
127	0x3d7a3451	0.06108505
128	0x3d7103a1	0.05884135
129	0xbd8abbbc	-0.06774089
130	0xbdc9e288	-0.098576605
131	0x3ea0db78	0.3141744
132	0x3db328df	0.0874803
133	0xbe09d2cf	-0.13459323
134	0x3c7df08e	0.015499247
135	0xbdce2328	-0.10065299
136	0xbd896afd	-0.067098595
137	0xbd97fe2e	-0.07421528
138	0xbe3d8714	-0.1850856
139	0xbe0c4666	-0.1369873
140	0xbdc67019	-0.0968935
141	0x3b6a24e1	0.0035727548
142	0x3c22959b	0.009923364
143	0xbd34ff22	-0.044188626
144	0xbdc874e8	-0.09787923
145	0x3d145701	0.036215786
146	0x3e75ca0d	0.24002858
147	0x3cd04f9b	0.025428584
148	0xbe250e81	-0.16118814
149	0x3e0036b9	0.12520875
150	0xbc135b45	-0.008993928
151	0xbdd49749	-0.10380418
152	0x3e101a16	0.14072451
153	0xbdd1494f	-0.10219061
154	0x3d253640	0.04033494
155	0x3e1682a3	0.14698271
156	0xbc6035e4	-0.0136847235
157	0xbe084d30	-0.13310695
158	0x3e1eba87	0.15500842
159	0xbd79d675	-0.060995538
160	0xbd08eb34	-0.033427432
161	0x3e336737	0.17519842
162	0xbe8805ec	-0.26567018
163	0x3df1ea89	0.11812312
164	0x3e217c0b	0.15769975
165	0xbd8e2c06	-0.069419906
166	0xbbcee5d0	-0.006314017
167	0xbe549289	-0.20759024
168	0xbc9eeec4	-0.019400962
169	0x3dc16b7e	0.09444331
170	0x3ccc5d4d	0.024946833
171	0xbc09d7b1	-0.008413241
172	0x3d2cace2	0.04215706
173	0xbd004e7b	-0.031324845
174	0xbe2539c2	-0.16135314
175	0xbe5faa70	-0.2184236
176	0x3d4bce70	0.04975742
177	0x3d077518	0.033070654
178	0xbc4b022c	-0.0123906545
179	0xbcbf836d	-0.023378098
180	0xbe986536	-0.29764718
181	0xbd8d18f7	-0.06889527
182	0x3e434e8e	0.19072935
183	0x3b0180e4	0.0019760663
184	0xbdae3aeb	-0.085073315
185	0xbd0bcc36	-0.034130298
186	0x3d9ff3f5	0.07810203
187	0xbb65d159	-0.0035067408
188	0x3d50edbc	0.05100797
189	0x3b6f91ec	0.0036555482
190	0x3ce4556d	0.027872765
191	0x3deebc1b	0.11656972
192	0xbd86c8f6	-0.06581299
193	0xbd84bbaf	-0.0648111
194	0xbb6e1ca7	-0.0036332996
195	0xbc5e48a4	-0.013567124
196	0xba85695d	-0.0010178495
197	0xbc39bbd1	-0.011336283
198	0xbde96e5f	-0.11398005
199	0xbe16a056	-0.14709601
200	0xbe096f7d	-0.13421436
201	0xbdbdfef8	-0.09277147
202	0xbd80d8ed	-0.06291375
203	0xbd50191f	-0.050805207
204	0xbc822e7c	-0.015891306
205	0x3d625262	0.055254348
206	0x3c03fc24	0.0080557205
207	0xbe8e8da2	-0.27842432
208	0x3d098440	0.03357339
209	0xbe2e9b46	-0.1705142
210	0xbe1e13ce	-0.15437242
211	0xbde56fc4	-0.11202958
212	0xbe390e8a	-0.18071952
213	0x3d0d4fa2	0.034499772
214	0xbe09654b	-0.13417546
215	0xbd4019f8	-0.046899766
216	0xbe4b0488	-0.19825947
217	0x3c78872b	0.015168945
218	0xbec91728	-0.3927548
219	0xbdf78193	-0.12085261
220	0xbd528794	-0.05139883
221	0xbec427b1	-0.38311532
222	0xbdee3a51	-0.11632217
223	0xbd7f7617	-0.06236848
224	0xbe36e7c2	-0.17861846
225	0x3db51e3e	0.08843659
226	0x3c659c88	0.014014371
227	0xbe93b504	-0.2884904
228	0xbd082dfb	-0.033246975
229	0xbd76efa9	-0.06028715
230	0xbe723b75	-0.23655494
231	0xbd23672e	-0.03989332
232	0xbe1868d9	-0.14883746
233	0xbe4daa6e	-0.20084545
234	0x3e1ce1f5	0.15320571
235	0x3de3bd86	0.11120133
236	0x3e41dd51	0.18932082
237	0x3d7d0a3b	0.061777335
238	0xbb824bdc	-0.0039763283
239	0x3ebb4d70	0.36582518
240	0x3df297d1	0.11845363
241	0xbe42923d	-0.19001098
242	0x3de2daf0	0.11076915
243	0x3c8b4a14	0.017003097
244	0xbd793153	-0.060838055
245	0xbe331b98	-0.17490995
246	0x3d3a70bc	0.045517668
247	0xbd2681f8	-0.04065129
248	0x3d1593c8	0.03651789
249	0xbdad1feb	-0.084533535
250	0xbd0eb7f6	-0.034843408
251	0xbc373839	-0.011182838
252	0x3e0a782b	0.13522403
253	0x3e1fde11	0.15612055
254	0xbe673779	-0.22579755
255	0xbdabbc08	-0.083854735

layer2.0.bias f4 [64]
0	0xbd93997e	-0.07207011
1	0xbca8f41d	-0.020624215
2	0xbd1fd435	-0.039020736
3	0xbe040283	-0.12891583
4	0xbd4e0341	-0.050296072
5	0xbda4dcde	-0.080499396
6	0xbd62ca9e	-0.055369012
7	0xbd6ed59e	-0.05830919
8	0xbd3c337c	-0.045947537
9	0xbd2ed535	-0.0426838
10	0xbd56a730	-0.052405536
11	0xbd83ba10	-0.06431973
12	0x3b90b809	0.00441647
13	0xbd2beefd	-0.041975964
14	0xbe1f20c8	-0.15539849
15	0xbd6d7de1	-0.057981376
16	0xbd89ae00	-0.06722641
17	0xbdcb8b18	-0.099386394
18	0xbd6edb08	-0.058314353
19	0x3d4419fe	0.04787635
20	0xbd9f48c4	-0.07777551
21	0xbd977589	-0.07395465
22	0x3b8ac61d	0.0042350427
23	0xbd9a73f7	-0.0754165
24	0xbd8e3bb6	-0.06944983
25	0x3ca42a3e	0.020039674
26	0xbd243536	-0.04008981
27	0x3d33436b	0.043765467
28	0xbd2f69d7	-0.042825546
29	0x3bdd01b9	0.00674459
30	0xbcfdeaeb	-0.030995807
31	0xbda4f00c	-0.08053598
32	0xbc933b0c	-0.017972492
33	0xbdc5afff	-0.09652709
34	0xbdace772	-0.08442582
35	0xbd79d849	-0.06099728
36	0xbe0f316c	-0.13983697
37	0xbdcd6071	-0.1002816
38	0xbdcaf198	-0.099093616
39	0x3bed4335	0.0072406777
40	0xbdf46bc8	-0.1193462
41	0xbdad36f2	-0.084577456
42	0x3cd2269d	0.025653178
43	0xbca60e2b	-0.020270428
44	0xbe21eb7c	-0.15812486
45	0x3bd4cfaa	0.006494482
46	0xbd853a20	-0.06505227
47	0xbd3819b1	-0.044946376
48	0xbd17aad8	-0.037028164
49	0x3c422faa	0.011852184
50	0xbd8538cb	-0.06504973
51	0xbd535986	-0.051599048
52	0xbda06c0d	-0.07833109
53	0xbd28097d	-0.041024674
54	0xbca31085	-0.019905338
55	0xbe1afa43	-0.1513453
56	0xbd873ea7	-0.06603747
57	0xbd6b554c	-0.057454392
58	0x3d073bbf	0.033015963
59	0xbc9b9aa7	-0.018994642
60	0xbd93e412	-0.07221235
61	0xbd0161ae	-0.031587295
62	0xbbfdc43b	-0.0077443398
63	0xbd8dc955	-0.06923167

fc.weight f4 [10, 3136]
0	0xbd6f5d87	-0.058438804
1	0xbd1f5df5	-0.038907964
2	0xbcadeea8	-0.021231964
3	0x3ccbea23	0.024891919
4	0x3a259b6a	0.0006317409
5	0x3c53673b	0.01290303
6	0xbd4091bd	-0.047013987
7	0x3dff5afe	0.12468527
8	0xbb112719	-0.0022148548
9	0xbe073a2e	-0.13205788
10	0xb9dc916d	-0.0004207002
11	0xbdb7ebb0	-0.08980501
12	0x3c4b33a1	0.012402446
13	0xbb16c1bb	-0.0023003656
14	0x3d0d6c36	0.034527026
15	0x3d9b93f8	0.07596582
16	0xbe0512f6	-0.12995514
17	0xbe0d2eca	-0.1378738
18	0x3cdeaa1c	0.027180724
19	0x3ddd75e2	0.108135
20	0xbc779c52	-0.015112953
21	0x3e1b8cf7	0.15190493
22	0xbcb64833	-0.022251224
23	0x3d7006cc	0.058600232
24	0xbd9c892c	-0.07643351
25	0x3a1967fd	0.0005851982
26	0x3e6395fe	0.22225186
27	0xbd7d74cf	-0.061878975
28	0x3d580823	0.052742135
29	0x3c593e3d	0.013259468
30	0x3c19457d	0.009354946
31	0xbe19ed19	-0.15031852
32	0x3da77723	0.081770204
33	0x3c9a1f55	0.018813768
34	0x3cb0aa14	0.021565475
35	0x3b708c3a	0.0036704675
36	0xbb07f469	-0.0020745045
37	0x3d921651	0.07133163
38	0xbe6e53b0	-0.23274112
39	0xbdcd387b	-0.100205384
40	0xbe729f91	-0.23693682
41	0x3b90b80b	0.004416471
42	0x3d7cc6a7	0.061712887
43	0xbcf53bca	-0.029935736
44	0x3e2ffcec	0.17186326
45	0xbede146e	-0.43374962
46	0xbe827410	-0.25479174
47	0xbd5811e0	-0.052751422
48	0xbcd9f5ef	-0.026606528
49	0x3d32958b	0.043599647
50	0xbcb37531	-0.021906467
51	0xbd08d656	-0.03340753
52	0xbc49b200	-0.012310505
53	0xbce3a06e	-0.02778646
54	0xbd5841fc	-0.052797303
55	0x3d8f4977	0.06996434
56	0x3cfc1441	0.030771377
57	0xbd35fb26	-0.044428967
58	0xbd09530f	-0.033526476
59	0x3d45f450	0.048328698
60	0xbdfdb2f4	-0.12387648
61	0xbdd7260c	-0.10505304
62	0x3ca49cde	0.020094331
63	0x3dbb38d5	0.09141699
64	0xbe063cb8	-0.131091
65	0x3dc6b93c	0.097032994
66	0xba9b9d05	-0.0011872357
67	0xbe11656e	-0.14198849
68	0xbdd34e20	-0.103176355
69	0x3d6bfc82	0.057613857
70	0xbd90e6ee	-0.07075296
71	0x3e0ac6d5	0.13552411
72	0x3da71344	0.081579715
73	0x3db67b4e	0.08910237
74	0x3e36cc84	0.17851454
75	0xbcf29229	-0.02961071
76	0x3d064cc6	0.03278806
77	0x3dadf335	0.08493654
78	0x3de015af	0.10941636
79	0x3d8638e5	0.065538205
80	0x3d0e79f6	0.03478428
81	0x3e0bb5e7	0.13643609
82	0x3c329107	0.010898835
83	0x3d711e5c	0.058866844
84	0xbd339982	-0.04384757
85	0xbe2b9f7f	-0.16760062
86	0xbdda1c32	-0.10649909
87	0xbc9957db	-0.01871865
88	0x3db4b6ee	0.088239536
89	0x3c2c5a3a	0.010519559
90	0xbca9fa08	-0.020749107
91	0x3bf3b7c3	0.0074376776
92	0xbd85032a	-0.06494744
93	0xbd93d12c	-0.07217631
94	0xbe2a1c81	-0.16612436
95	0xbca245a1	-0.019808592
96	0xbd8c5d61	-0.06853748
97	0xbd4d8c6e	-0.050182752
98	0xbd1c1057	-0.03810152
99	0x3b9fa342	0.004871757
100	0x3c036075	0.008018603
101	0xbc1617b0	-0.009160921
102	0xbdf58a34	-0.11989251
103	0xbd6efc3e	-0.058346026
104	0xbd1f41f8	-0.038881272
105	0xbbeee6d2	-0.0072906995
106	0xbd7fcb41	-0.062449697
107	0xbe1150f6	-0.1419104
108	0x3e0bee06	0.13665017
109	0xbe11835b	-0.14210264
110	0xbd21a3d7	-0.03946289
111	0x3df83ec7	0.12121349
112	0xbd35127f	-0.044207092
113	0xbda666ee	-0.08125101
114	0x3d0ca6b7	0.03433868
115	0xbce4352e	-0.02785739
116	0xbd4c92d1	-0.049944703
117	0x3d6dc266	0.05804672
118	0x3d955bb0	0.07292879
119	0x3d134ad6	0.03596004
120	0xbd64764e	-0.055776887
121	0x3da480a2	0.08032347
122	0xbd802938	-0.06257862
123	0xbdbc765a	-0.09202261
124	0x3e0c5204	0.13703161
125	0x3d83ccb5	0.06435529
126	0x3d09d156	0.033646904
127	0x3b3e11b7	0.0029002258
128	0xbd47e081	-0.048798088
129	0xbe2022f1	-0.15638329
130	0xbc1d2597	-0.009591482
131	0x3cfa8de4	0.030585237
132	0x3db8dbce	0.090262994
133	0x3cd88c3e	0.02643406
134	0xbdb866e4	-0.09004
135	0x3c07c0fc	0.008285757
136	0xbdc7fa82	-0.097645774
137	0xbbc2cd43	-0.0059448793
138	0xbb96fe4f	-0.0046079527
139	0xbc1b9fe5	-0.009498571
140	0xbd243fed	-0.040100027
141	0x3d222894	0.03958948
142	0xbd420237	-0.047365393
143	0xbdb873b1	-0.090064414
144	0x3b9f6d71	0.0048653414
145	0xbd59b117	-0.0531474
146	0x3ca92796	0.020648759
147	0xbd279b6c	-0.040919706
148	0xbcf44d7a	-0.0298221
149	0x3d8ec99a	0.06972046
150	0x3d1b82b4	0.037966445
151	0xbd1b52b3	-0.037920665
152	0x3bec91aa	0.007219513
153	0x3c6b17d5	0.014348944
154	0x3c4bffe7	0.012451149
155	0xbe1b2310	-0.15150094
156	0x3d13e470	0.036106527
157	0x3d04b2a6	0.032396935
158	0x3dc56893	0.096390866
159	0x3de4e7f1	0.11177052
160	0x3e1e019b	0.154303
161	0x3cbb2ffa	0.022850025
162	0x3db9f77a	0.090804055
163	0xbd989ef3	-0.07452192
164	0xbd5714fc	-0.052510247
165	0xbcf062ad	-0.029343927
166	0x3d367b9b	0.044551473
167	0x3da49e7a	0.080380395
168	0x3cc7daa0	0.02439624
169	0xbdbaecf1	-0.09127224
170	0x3cec4cfd	0.028845305
171	0x3d227740	0.039664507
172	0xbe4583f5	-0.19288619
173	0x3cf053d6	0.029336851
174	0x3e25df3e	0.16198441
175	0x3cfe7563	0.031061834
176	0x3d420e1b	0.047376733
177	0xbb715453	-0.0036823943
178	0xbcec8b21	-0.028874936
179	0xbe13f58d	-0.14449139
180	0xbd7d4e8e	-0.061842494
181	0xbcd8f1b0	-0.026482433
182	0xbcfd03fe	-0.030885693
183	0x3d8013a1	0.06253744
184	0x3d5ab7ec	0.053398058
185	0xbdf85ef8	-0.12127489
186	0xbe574168	-0.21021044
187	0xbe2c0013	-0.16796903
188	0xbd0b5818	-0.03401956
189	0x3b7e32d4	0.003878762
190	0x3d06be62	0.032896407
191	0x3d91f115	0.07126061
192	0x3dcdd38b	0.10050114
193	0xbdc1672c	-0.094435066
194	0x3dd564f4	0.10419646
195	0xbddf2542	-0.10895778
196	0xbe00c2d0	-0.12574315
197	0xbe2403d9	-0.16017093
198	0xbe3ac70e	-0.18239996
199	0x3d0237c1	0.031791452
200	0xbc4a90cc	-0.012363624
201	0x3d9afa53	0.07567277
202	0xbd506234	-0.050874904
203	0xbd816adb	-0.06319209
204	0xbda4f446	-0.08054404
205	0xbe0ebb6c	-0.13938683
206	0xbd7c9a13	-0.061670374
207	0xbd84e730	-0.06489408
208	0xbd203683	-0.039114486
209	0xbd9fd3be	-0.078040585
210	0x3d213ec8	0.039366513
211	0x3bb105bd	0.0054022954
212	0xbd24a483	-0.040195953
213	0x3c182f79	0.009288662
214	0x3de5fd0a	0.11229904
215	0x3d1b26c2	0.03787876
216	0xbd38ae0a	-0.04508785
217	0xbd28ed6e	-0.041242056
218	0x3dc59a3f	0.09648561
219	0x3d817717	0.06321543
220	0xbd152f98	-0.036422342
221	0xbb3236a9	-0.0027193225
222	0x3da8f367	0.0824955
223	0xbd6c7905	-0.0577326
224	0x3d6b665c	0.057470664
225	0x3dad968e	0.08475982
226	0x3daa72e6	0.083226964
227	0x3cbf4c32	0.023351762
228	0xbcf9ddc8	-0.030501261
229	0xbd0495a8	-0.032369286
230	0xbe3faaf7	-0.18717562
231	0x3db5789c	0.08860895
232	0xbcc77b16	-0.024350684
233	0x3e0db444	0.13838297
234	0x3da4861e	0.08033393
235	0xbecc5461	-0.39908126
236	0xbec2b2e4	-0.38027108
237	0xbe811911	-0.25214437
238	0x3c87f7a4	0.016597576
239	0xba40358a	-0.00073321967
240	0x3e13f337	0.14448248
241	0xbdaac7ad	-0.083388664
242	0xbea386c7	-0.31938764
243	0xbe11bf24	-0.1423307
244	0xbe002e09	-0.12517561
245	0xbd06cc5e	-0.032909743
246	0xbd554243	-0.052065145
247	0xbd51a25b	-0.051180225
248	0x3c8c1e19	0.017104195
249	0xbcdd9fd4	-0.027053751
250	0x3bf4eebe	0.0074747493
251	0x3ca0cec6	0.019629847
252	0xbdb1529a	-0.08658333
253	0xbda7a545	-0.081858195
254	0x3ca768bf	0.020435689
255	0xbd268ef2	-0.040663667

fc.bias f4 [10]
0	0x3d571da3	0.0525185
1	0x3d60691c	0.05478774
2	0x3cc4da16	0.024029773
3	0xbce32f5d	-0.027732546
4	0xbd18d858	-0.037315696
5	0x3b98e26f	0.004665665
6	0xbbbb3edf	-0.005714282
7	0xbcb1e93f	-0.021717666
8	0xbc5251bc	-0.01283687
9	0x3ac3bc4e	0.0014933439
